…
I tensorflow/core/common_runtime/gpu/gpu_device.cc:975] Creating TensorFlow device (/gpu:2) -> (device: 2, name: GRID K520, pci bus id: 0000:00:05.0)
I tensorflow/core/common_runtime/gpu/gpu_device.cc:975] Creating TensorFlow device (/gpu:3) -> (device: 3, name: GRID K520, pci bus id: 0000:00:06.0)
____________________________________________________________________________________________________
Layer (type)                     Output Shape          Param #     Connected to                     
====================================================================================================
dense_1 (Dense)                  (None, 2800)          7842800     dense_input_1[0][0]              
____________________________________________________________________________________________________
activation_1 (Activation)        (None, 2800)          0           dense_1[0][0]                    
____________________________________________________________________________________________________
batchnormalization_1 (BatchNormal(None, 2800)          5600        activation_1[0][0]               
____________________________________________________________________________________________________
dropout_1 (Dropout)              (None, 2800)          0           batchnormalization_1[0][0]       
____________________________________________________________________________________________________
dense_2 (Dense)                  (None, 2800)          7842800     dropout_1[0][0]                  
____________________________________________________________________________________________________
activation_2 (Activation)        (None, 2800)          0           dense_2[0][0]                    
____________________________________________________________________________________________________
batchnormalization_2 (BatchNormal(None, 2800)          5600        activation_2[0][0]               
____________________________________________________________________________________________________
dropout_2 (Dropout)              (None, 2800)          0           batchnormalization_2[0][0]       
____________________________________________________________________________________________________
dense_3 (Dense)                  (None, 2800)          7842800     dropout_2[0][0]                  
____________________________________________________________________________________________________
activation_3 (Activation)        (None, 2800)          0           dense_3[0][0]                    
____________________________________________________________________________________________________
batchnormalization_3 (BatchNormal(None, 2800)          5600        activation_3[0][0]               
____________________________________________________________________________________________________
dense_4 (Dense)                  (None, 607)           1700207     batchnormalization_3[0][0]       
____________________________________________________________________________________________________
activation_4 (Activation)        (None, 607)           0           dense_4[0][0]                    
====================================================================================================
Total params: 25245407
____________________________________________________________________________________________________
file exists: /home/mehdi/data/corpus/VCTK-Corpus/wav48/*/*.wav
file is readable: /home/mehdi/data/corpus/VCTK-Corpus/wav48/*/*.wav
…
